{
  "nodes": [
    {
      "op": "null", 
      "name": "0", 
      "inputs": []
    }, 
    {
      "op": "null", 
      "name": "1_sc", 
      "inputs": []
    }, 
    {
      "op": "null", 
      "name": "batch_norm0_add_beta_expand", 
      "inputs": []
    }, 
    {
      "op": "tvm_op", 
      "name": "clip0", 
      "attrs": {
        "flatten_data": "0", 
        "func_name": "fuse_conv2d_broadcast_add_clip", 
        "num_inputs": "3", 
        "num_outputs": "1"
      }, 
      "inputs": [[0, 0, 0], [1, 0, 0], [2, 0, 0]]
    }, 
    {
      "op": "null", 
      "name": "7_sc", 
      "inputs": []
    }, 
    {
      "op": "null", 
      "name": "batch_norm1_add_beta_expand", 
      "inputs": []
    }, 
    {
      "op": "tvm_op", 
      "name": "clip1", 
      "attrs": {
        "flatten_data": "0", 
        "func_name": "fuse_conv2d_broadcast_add_clip_1", 
        "num_inputs": "3", 
        "num_outputs": "1"
      }, 
      "inputs": [[3, 0, 0], [4, 0, 0], [5, 0, 0]]
    }, 
    {
      "op": "null", 
      "name": "13_sc", 
      "inputs": []
    }, 
    {
      "op": "null", 
      "name": "batch_norm2_add_beta_expand", 
      "inputs": []
    }, 
    {
      "op": "tvm_op", 
      "name": "clip2", 
      "attrs": {
        "flatten_data": "0", 
        "func_name": "fuse_conv2d_broadcast_add_clip_2", 
        "num_inputs": "3", 
        "num_outputs": "1"
      }, 
      "inputs": [[6, 0, 0], [7, 0, 0], [8, 0, 0]]
    }, 
    {
      "op": "null", 
      "name": "19_sc", 
      "inputs": []
    }, 
    {
      "op": "null", 
      "name": "batch_norm3_add_beta_expand", 
      "inputs": []
    }, 
    {
      "op": "tvm_op", 
      "name": "clip3", 
      "attrs": {
        "flatten_data": "0", 
        "func_name": "fuse_conv2d_broadcast_add_clip_3", 
        "num_inputs": "3", 
        "num_outputs": "1"
      }, 
      "inputs": [[9, 0, 0], [10, 0, 0], [11, 0, 0]]
    }, 
    {
      "op": "null", 
      "name": "25_sc", 
      "inputs": []
    }, 
    {
      "op": "null", 
      "name": "batch_norm4_add_beta_expand", 
      "inputs": []
    }, 
    {
      "op": "tvm_op", 
      "name": "clip4", 
      "attrs": {
        "flatten_data": "0", 
        "func_name": "fuse_conv2d_broadcast_add_clip_4", 
        "num_inputs": "3", 
        "num_outputs": "1"
      }, 
      "inputs": [[12, 0, 0], [13, 0, 0], [14, 0, 0]]
    }, 
    {
      "op": "null", 
      "name": "31_sc", 
      "inputs": []
    }, 
    {
      "op": "null", 
      "name": "batch_norm5_add_beta_expand", 
      "inputs": []
    }, 
    {
      "op": "tvm_op", 
      "name": "clip5", 
      "attrs": {
        "flatten_data": "0", 
        "func_name": "fuse_conv2d_broadcast_add_clip_5", 
        "num_inputs": "3", 
        "num_outputs": "1"
      }, 
      "inputs": [[15, 0, 0], [16, 0, 0], [17, 0, 0]]
    }, 
    {
      "op": "null", 
      "name": "37_sc", 
      "inputs": []
    }, 
    {
      "op": "null", 
      "name": "batch_norm6_add_beta_expand", 
      "inputs": []
    }, 
    {
      "op": "tvm_op", 
      "name": "clip6", 
      "attrs": {
        "flatten_data": "0", 
        "func_name": "fuse_conv2d_broadcast_add_clip_6", 
        "num_inputs": "3", 
        "num_outputs": "1"
      }, 
      "inputs": [[18, 0, 0], [19, 0, 0], [20, 0, 0]]
    }, 
    {
      "op": "null", 
      "name": "43_sc", 
      "inputs": []
    }, 
    {
      "op": "null", 
      "name": "batch_norm7_add_beta_expand", 
      "inputs": []
    }, 
    {
      "op": "tvm_op", 
      "name": "clip7", 
      "attrs": {
        "flatten_data": "0", 
        "func_name": "fuse_conv2d_broadcast_add_clip_7", 
        "num_inputs": "3", 
        "num_outputs": "1"
      }, 
      "inputs": [[21, 0, 0], [22, 0, 0], [23, 0, 0]]
    }, 
    {
      "op": "null", 
      "name": "49_sc", 
      "inputs": []
    }, 
    {
      "op": "null", 
      "name": "batch_norm8_add_beta_expand", 
      "inputs": []
    }, 
    {
      "op": "tvm_op", 
      "name": "clip8", 
      "attrs": {
        "flatten_data": "0", 
        "func_name": "fuse_conv2d_broadcast_add_clip_8", 
        "num_inputs": "3", 
        "num_outputs": "1"
      }, 
      "inputs": [[24, 0, 0], [25, 0, 0], [26, 0, 0]]
    }, 
    {
      "op": "null", 
      "name": "55_sc", 
      "inputs": []
    }, 
    {
      "op": "null", 
      "name": "batch_norm9_add_beta_expand", 
      "inputs": []
    }, 
    {
      "op": "tvm_op", 
      "name": "clip9", 
      "attrs": {
        "flatten_data": "0", 
        "func_name": "fuse_conv2d_broadcast_add_clip_9", 
        "num_inputs": "3", 
        "num_outputs": "1"
      }, 
      "inputs": [[27, 0, 0], [28, 0, 0], [29, 0, 0]]
    }, 
    {
      "op": "null", 
      "name": "61_sc", 
      "inputs": []
    }, 
    {
      "op": "null", 
      "name": "batch_norm10_add_beta_expand", 
      "inputs": []
    }, 
    {
      "op": "tvm_op", 
      "name": "clip10", 
      "attrs": {
        "flatten_data": "0", 
        "func_name": "fuse_conv2d_broadcast_add_clip_10", 
        "num_inputs": "3", 
        "num_outputs": "1"
      }, 
      "inputs": [[30, 0, 0], [31, 0, 0], [32, 0, 0]]
    }, 
    {
      "op": "null", 
      "name": "67_sc", 
      "inputs": []
    }, 
    {
      "op": "null", 
      "name": "batch_norm11_add_beta_expand", 
      "inputs": []
    }, 
    {
      "op": "tvm_op", 
      "name": "clip11", 
      "attrs": {
        "flatten_data": "0", 
        "func_name": "fuse_conv2d_broadcast_add_clip_11", 
        "num_inputs": "3", 
        "num_outputs": "1"
      }, 
      "inputs": [[33, 0, 0], [34, 0, 0], [35, 0, 0]]
    }, 
    {
      "op": "null", 
      "name": "73_sc", 
      "inputs": []
    }, 
    {
      "op": "null", 
      "name": "batch_norm12_add_beta_expand", 
      "inputs": []
    }, 
    {
      "op": "tvm_op", 
      "name": "clip12", 
      "attrs": {
        "flatten_data": "0", 
        "func_name": "fuse_conv2d_broadcast_add_clip_12", 
        "num_inputs": "3", 
        "num_outputs": "1"
      }, 
      "inputs": [[36, 0, 0], [37, 0, 0], [38, 0, 0]]
    }, 
    {
      "op": "null", 
      "name": "79_sc", 
      "inputs": []
    }, 
    {
      "op": "null", 
      "name": "batch_norm13_add_beta_expand", 
      "inputs": []
    }, 
    {
      "op": "tvm_op", 
      "name": "clip13", 
      "attrs": {
        "flatten_data": "0", 
        "func_name": "fuse_conv2d_broadcast_add_clip_13", 
        "num_inputs": "3", 
        "num_outputs": "1"
      }, 
      "inputs": [[39, 0, 0], [40, 0, 0], [41, 0, 0]]
    }, 
    {
      "op": "null", 
      "name": "85_sc", 
      "inputs": []
    }, 
    {
      "op": "null", 
      "name": "batch_norm14_add_beta_expand", 
      "inputs": []
    }, 
    {
      "op": "tvm_op", 
      "name": "clip14", 
      "attrs": {
        "flatten_data": "0", 
        "func_name": "fuse_conv2d_broadcast_add_clip_14", 
        "num_inputs": "3", 
        "num_outputs": "1"
      }, 
      "inputs": [[42, 0, 0], [43, 0, 0], [44, 0, 0]]
    }, 
    {
      "op": "null", 
      "name": "91_sc", 
      "inputs": []
    }, 
    {
      "op": "null", 
      "name": "batch_norm15_add_beta_expand", 
      "inputs": []
    }, 
    {
      "op": "tvm_op", 
      "name": "clip15", 
      "attrs": {
        "flatten_data": "0", 
        "func_name": "fuse_conv2d_broadcast_add_clip_13", 
        "num_inputs": "3", 
        "num_outputs": "1"
      }, 
      "inputs": [[45, 0, 0], [46, 0, 0], [47, 0, 0]]
    }, 
    {
      "op": "null", 
      "name": "97_sc", 
      "inputs": []
    }, 
    {
      "op": "null", 
      "name": "batch_norm16_add_beta_expand", 
      "inputs": []
    }, 
    {
      "op": "tvm_op", 
      "name": "clip16", 
      "attrs": {
        "flatten_data": "0", 
        "func_name": "fuse_conv2d_broadcast_add_clip_14", 
        "num_inputs": "3", 
        "num_outputs": "1"
      }, 
      "inputs": [[48, 0, 0], [49, 0, 0], [50, 0, 0]]
    }, 
    {
      "op": "null", 
      "name": "103_sc", 
      "inputs": []
    }, 
    {
      "op": "null", 
      "name": "batch_norm17_add_beta_expand", 
      "inputs": []
    }, 
    {
      "op": "tvm_op", 
      "name": "clip17", 
      "attrs": {
        "flatten_data": "0", 
        "func_name": "fuse_conv2d_broadcast_add_clip_13", 
        "num_inputs": "3", 
        "num_outputs": "1"
      }, 
      "inputs": [[51, 0, 0], [52, 0, 0], [53, 0, 0]]
    }, 
    {
      "op": "null", 
      "name": "109_sc", 
      "inputs": []
    }, 
    {
      "op": "null", 
      "name": "batch_norm18_add_beta_expand", 
      "inputs": []
    }, 
    {
      "op": "tvm_op", 
      "name": "clip18", 
      "attrs": {
        "flatten_data": "0", 
        "func_name": "fuse_conv2d_broadcast_add_clip_14", 
        "num_inputs": "3", 
        "num_outputs": "1"
      }, 
      "inputs": [[54, 0, 0], [55, 0, 0], [56, 0, 0]]
    }, 
    {
      "op": "null", 
      "name": "115_sc", 
      "inputs": []
    }, 
    {
      "op": "null", 
      "name": "batch_norm19_add_beta_expand", 
      "inputs": []
    }, 
    {
      "op": "tvm_op", 
      "name": "clip19", 
      "attrs": {
        "flatten_data": "0", 
        "func_name": "fuse_conv2d_broadcast_add_clip_13", 
        "num_inputs": "3", 
        "num_outputs": "1"
      }, 
      "inputs": [[57, 0, 0], [58, 0, 0], [59, 0, 0]]
    }, 
    {
      "op": "null", 
      "name": "121_sc", 
      "inputs": []
    }, 
    {
      "op": "null", 
      "name": "batch_norm20_add_beta_expand", 
      "inputs": []
    }, 
    {
      "op": "tvm_op", 
      "name": "clip20", 
      "attrs": {
        "flatten_data": "0", 
        "func_name": "fuse_conv2d_broadcast_add_clip_14", 
        "num_inputs": "3", 
        "num_outputs": "1"
      }, 
      "inputs": [[60, 0, 0], [61, 0, 0], [62, 0, 0]]
    }, 
    {
      "op": "null", 
      "name": "127_sc", 
      "inputs": []
    }, 
    {
      "op": "null", 
      "name": "batch_norm21_add_beta_expand", 
      "inputs": []
    }, 
    {
      "op": "tvm_op", 
      "name": "clip21", 
      "attrs": {
        "flatten_data": "0", 
        "func_name": "fuse_conv2d_broadcast_add_clip_13", 
        "num_inputs": "3", 
        "num_outputs": "1"
      }, 
      "inputs": [[63, 0, 0], [64, 0, 0], [65, 0, 0]]
    }, 
    {
      "op": "null", 
      "name": "133_sc", 
      "inputs": []
    }, 
    {
      "op": "null", 
      "name": "batch_norm22_add_beta_expand", 
      "inputs": []
    }, 
    {
      "op": "tvm_op", 
      "name": "clip22", 
      "attrs": {
        "flatten_data": "0", 
        "func_name": "fuse_conv2d_broadcast_add_clip_14", 
        "num_inputs": "3", 
        "num_outputs": "1"
      }, 
      "inputs": [[66, 0, 0], [67, 0, 0], [68, 0, 0]]
    }, 
    {
      "op": "null", 
      "name": "139_sc", 
      "inputs": []
    }, 
    {
      "op": "null", 
      "name": "batch_norm23_add_beta_expand", 
      "inputs": []
    }, 
    {
      "op": "tvm_op", 
      "name": "clip23", 
      "attrs": {
        "flatten_data": "0", 
        "func_name": "fuse_conv2d_broadcast_add_clip_15", 
        "num_inputs": "3", 
        "num_outputs": "1"
      }, 
      "inputs": [[69, 0, 0], [70, 0, 0], [71, 0, 0]]
    }, 
    {
      "op": "null", 
      "name": "145_sc", 
      "inputs": []
    }, 
    {
      "op": "null", 
      "name": "batch_norm24_add_beta_expand", 
      "inputs": []
    }, 
    {
      "op": "tvm_op", 
      "name": "clip24", 
      "attrs": {
        "flatten_data": "0", 
        "func_name": "fuse_conv2d_broadcast_add_clip_16", 
        "num_inputs": "3", 
        "num_outputs": "1"
      }, 
      "inputs": [[72, 0, 0], [73, 0, 0], [74, 0, 0]]
    }, 
    {
      "op": "null", 
      "name": "151_sc", 
      "inputs": []
    }, 
    {
      "op": "null", 
      "name": "batch_norm25_add_beta_expand", 
      "inputs": []
    }, 
    {
      "op": "tvm_op", 
      "name": "clip25", 
      "attrs": {
        "flatten_data": "0", 
        "func_name": "fuse_conv2d_broadcast_add_clip_17", 
        "num_inputs": "3", 
        "num_outputs": "1"
      }, 
      "inputs": [[75, 0, 0], [76, 0, 0], [77, 0, 0]]
    }, 
    {
      "op": "null", 
      "name": "157_sc", 
      "inputs": []
    }, 
    {
      "op": "null", 
      "name": "batch_norm26_add_beta_expand", 
      "inputs": []
    }, 
    {
      "op": "tvm_op", 
      "name": "clip26", 
      "attrs": {
        "flatten_data": "0", 
        "func_name": "fuse_conv2d_broadcast_add_clip_18", 
        "num_inputs": "3", 
        "num_outputs": "1"
      }, 
      "inputs": [[78, 0, 0], [79, 0, 0], [80, 0, 0]]
    }, 
    {
      "op": "null", 
      "name": "163_sc", 
      "inputs": []
    }, 
    {
      "op": "null", 
      "name": "batch_norm27_add_beta_expand", 
      "inputs": []
    }, 
    {
      "op": "tvm_op", 
      "name": "relu0", 
      "attrs": {
        "flatten_data": "0", 
        "func_name": "fuse_conv2d_broadcast_add_relu", 
        "num_inputs": "3", 
        "num_outputs": "1"
      }, 
      "inputs": [[81, 0, 0], [82, 0, 0], [83, 0, 0]]
    }, 
    {
      "op": "null", 
      "name": "169_sc", 
      "inputs": []
    }, 
    {
      "op": "null", 
      "name": "batch_norm28_add_beta_expand", 
      "inputs": []
    }, 
    {
      "op": "tvm_op", 
      "name": "relu1", 
      "attrs": {
        "flatten_data": "0", 
        "func_name": "fuse_conv2d_broadcast_add_relu_1", 
        "num_inputs": "3", 
        "num_outputs": "1"
      }, 
      "inputs": [[84, 0, 0], [85, 0, 0], [86, 0, 0]]
    }, 
    {
      "op": "tvm_op", 
      "name": "upsampling0", 
      "attrs": {
        "flatten_data": "0", 
        "func_name": "fuse_upsampling", 
        "num_inputs": "1", 
        "num_outputs": "1"
      }, 
      "inputs": [[87, 0, 0]]
    }, 
    {
      "op": "null", 
      "name": "175_sc", 
      "inputs": []
    }, 
    {
      "op": "null", 
      "name": "batch_norm29_add_beta_expand", 
      "inputs": []
    }, 
    {
      "op": "tvm_op", 
      "name": "relu2", 
      "attrs": {
        "flatten_data": "0", 
        "func_name": "fuse_conv2d_broadcast_add_relu_2", 
        "num_inputs": "3", 
        "num_outputs": "1"
      }, 
      "inputs": [[88, 0, 0], [89, 0, 0], [90, 0, 0]]
    }, 
    {
      "op": "null", 
      "name": "181_sc", 
      "inputs": []
    }, 
    {
      "op": "null", 
      "name": "batch_norm30_add_beta_expand", 
      "inputs": []
    }, 
    {
      "op": "tvm_op", 
      "name": "relu3", 
      "attrs": {
        "flatten_data": "0", 
        "func_name": "fuse_conv2d_broadcast_add_relu_3", 
        "num_inputs": "3", 
        "num_outputs": "1"
      }, 
      "inputs": [[91, 0, 0], [92, 0, 0], [93, 0, 0]]
    }, 
    {
      "op": "tvm_op", 
      "name": "upsampling1", 
      "attrs": {
        "flatten_data": "0", 
        "func_name": "fuse_upsampling_1", 
        "num_inputs": "1", 
        "num_outputs": "1"
      }, 
      "inputs": [[94, 0, 0]]
    }, 
    {
      "op": "null", 
      "name": "187_sc", 
      "inputs": []
    }, 
    {
      "op": "null", 
      "name": "batch_norm31_add_beta_expand", 
      "inputs": []
    }, 
    {
      "op": "tvm_op", 
      "name": "relu4", 
      "attrs": {
        "flatten_data": "0", 
        "func_name": "fuse_conv2d_broadcast_add_relu_4", 
        "num_inputs": "3", 
        "num_outputs": "1"
      }, 
      "inputs": [[95, 0, 0], [96, 0, 0], [97, 0, 0]]
    }, 
    {
      "op": "null", 
      "name": "193_sc", 
      "inputs": []
    }, 
    {
      "op": "null", 
      "name": "batch_norm32_add_beta_expand", 
      "inputs": []
    }, 
    {
      "op": "tvm_op", 
      "name": "relu5", 
      "attrs": {
        "flatten_data": "0", 
        "func_name": "fuse_conv2d_broadcast_add_relu_5", 
        "num_inputs": "3", 
        "num_outputs": "1"
      }, 
      "inputs": [[98, 0, 0], [99, 0, 0], [100, 0, 0]]
    }, 
    {
      "op": "tvm_op", 
      "name": "upsampling2", 
      "attrs": {
        "flatten_data": "0", 
        "func_name": "fuse_upsampling_2", 
        "num_inputs": "1", 
        "num_outputs": "1"
      }, 
      "inputs": [[101, 0, 0]]
    }, 
    {
      "op": "null", 
      "name": "199_sc", 
      "inputs": []
    }, 
    {
      "op": "null", 
      "name": "batch_norm33_add_beta_expand", 
      "inputs": []
    }, 
    {
      "op": "tvm_op", 
      "name": "relu6", 
      "attrs": {
        "flatten_data": "0", 
        "func_name": "fuse_conv2d_broadcast_add_relu_6", 
        "num_inputs": "3", 
        "num_outputs": "1"
      }, 
      "inputs": [[102, 0, 0], [103, 0, 0], [104, 0, 0]]
    }, 
    {
      "op": "null", 
      "name": "205_sc", 
      "inputs": []
    }, 
    {
      "op": "null", 
      "name": "batch_norm34_add_beta_expand", 
      "inputs": []
    }, 
    {
      "op": "tvm_op", 
      "name": "relu7", 
      "attrs": {
        "flatten_data": "0", 
        "func_name": "fuse_conv2d_broadcast_add_relu_7", 
        "num_inputs": "3", 
        "num_outputs": "1"
      }, 
      "inputs": [[105, 0, 0], [106, 0, 0], [107, 0, 0]]
    }, 
    {
      "op": "tvm_op", 
      "name": "upsampling3", 
      "attrs": {
        "flatten_data": "0", 
        "func_name": "fuse_upsampling_3", 
        "num_inputs": "1", 
        "num_outputs": "1"
      }, 
      "inputs": [[108, 0, 0]]
    }, 
    {
      "op": "null", 
      "name": "211_sc", 
      "inputs": []
    }, 
    {
      "op": "null", 
      "name": "batch_norm35_add_beta_expand", 
      "inputs": []
    }, 
    {
      "op": "tvm_op", 
      "name": "relu8", 
      "attrs": {
        "flatten_data": "0", 
        "func_name": "fuse_conv2d_broadcast_add_relu_8", 
        "num_inputs": "3", 
        "num_outputs": "1"
      }, 
      "inputs": [[109, 0, 0], [110, 0, 0], [111, 0, 0]]
    }, 
    {
      "op": "null", 
      "name": "217_sc", 
      "inputs": []
    }, 
    {
      "op": "null", 
      "name": "batch_norm36_add_beta_expand", 
      "inputs": []
    }, 
    {
      "op": "tvm_op", 
      "name": "relu9", 
      "attrs": {
        "flatten_data": "0", 
        "func_name": "fuse_conv2d_broadcast_add_relu_9", 
        "num_inputs": "3", 
        "num_outputs": "1"
      }, 
      "inputs": [[112, 0, 0], [113, 0, 0], [114, 0, 0]]
    }, 
    {
      "op": "tvm_op", 
      "name": "upsampling4", 
      "attrs": {
        "flatten_data": "0", 
        "func_name": "fuse_upsampling_4", 
        "num_inputs": "1", 
        "num_outputs": "1"
      }, 
      "inputs": [[115, 0, 0]]
    }, 
    {
      "op": "null", 
      "name": "223_sc", 
      "inputs": []
    }, 
    {
      "op": "null", 
      "name": "batch_norm37_add_beta_expand", 
      "inputs": []
    }, 
    {
      "op": "tvm_op", 
      "name": "relu10", 
      "attrs": {
        "flatten_data": "0", 
        "func_name": "fuse_conv2d_broadcast_add_relu_10", 
        "num_inputs": "3", 
        "num_outputs": "1"
      }, 
      "inputs": [[116, 0, 0], [117, 0, 0], [118, 0, 0]]
    }
  ], 
  "arg_nodes": [
    0, 
    1, 
    2, 
    4, 
    5, 
    7, 
    8, 
    10, 
    11, 
    13, 
    14, 
    16, 
    17, 
    19, 
    20, 
    22, 
    23, 
    25, 
    26, 
    28, 
    29, 
    31, 
    32, 
    34, 
    35, 
    37, 
    38, 
    40, 
    41, 
    43, 
    44, 
    46, 
    47, 
    49, 
    50, 
    52, 
    53, 
    55, 
    56, 
    58, 
    59, 
    61, 
    62, 
    64, 
    65, 
    67, 
    68, 
    70, 
    71, 
    73, 
    74, 
    76, 
    77, 
    79, 
    80, 
    82, 
    83, 
    85, 
    86, 
    89, 
    90, 
    92, 
    93, 
    96, 
    97, 
    99, 
    100, 
    103, 
    104, 
    106, 
    107, 
    110, 
    111, 
    113, 
    114, 
    117, 
    118
  ], 
  "node_row_ptr": [
    0, 
    1, 
    2, 
    3, 
    4, 
    5, 
    6, 
    7, 
    8, 
    9, 
    10, 
    11, 
    12, 
    13, 
    14, 
    15, 
    16, 
    17, 
    18, 
    19, 
    20, 
    21, 
    22, 
    23, 
    24, 
    25, 
    26, 
    27, 
    28, 
    29, 
    30, 
    31, 
    32, 
    33, 
    34, 
    35, 
    36, 
    37, 
    38, 
    39, 
    40, 
    41, 
    42, 
    43, 
    44, 
    45, 
    46, 
    47, 
    48, 
    49, 
    50, 
    51, 
    52, 
    53, 
    54, 
    55, 
    56, 
    57, 
    58, 
    59, 
    60, 
    61, 
    62, 
    63, 
    64, 
    65, 
    66, 
    67, 
    68, 
    69, 
    70, 
    71, 
    72, 
    73, 
    74, 
    75, 
    76, 
    77, 
    78, 
    79, 
    80, 
    81, 
    82, 
    83, 
    84, 
    85, 
    86, 
    87, 
    88, 
    89, 
    90, 
    91, 
    92, 
    93, 
    94, 
    95, 
    96, 
    97, 
    98, 
    99, 
    100, 
    101, 
    102, 
    103, 
    104, 
    105, 
    106, 
    107, 
    108, 
    109, 
    110, 
    111, 
    112, 
    113, 
    114, 
    115, 
    116, 
    117, 
    118, 
    119, 
    120
  ], 
  "heads": [[119, 0, 0]], 
  "attrs": {
    "storage_id": ["list_int", [
        3, 
        4, 
        5, 
        0, 
        6, 
        7, 
        1, 
        8, 
        9, 
        0, 
        10, 
        11, 
        1, 
        12, 
        13, 
        0, 
        14, 
        15, 
        1, 
        16, 
        17, 
        0, 
        18, 
        19, 
        1, 
        20, 
        21, 
        0, 
        22, 
        23, 
        1, 
        24, 
        25, 
        0, 
        26, 
        27, 
        1, 
        28, 
        29, 
        0, 
        30, 
        31, 
        1, 
        32, 
        33, 
        0, 
        34, 
        35, 
        1, 
        36, 
        37, 
        0, 
        38, 
        39, 
        1, 
        40, 
        41, 
        0, 
        42, 
        43, 
        1, 
        44, 
        45, 
        0, 
        46, 
        47, 
        1, 
        48, 
        49, 
        0, 
        50, 
        51, 
        1, 
        52, 
        53, 
        0, 
        54, 
        55, 
        1, 
        56, 
        57, 
        0, 
        58, 
        59, 
        1, 
        60, 
        61, 
        2, 
        1, 
        62, 
        63, 
        0, 
        64, 
        65, 
        1, 
        0, 
        66, 
        67, 
        1, 
        68, 
        69, 
        0, 
        1, 
        70, 
        71, 
        0, 
        72, 
        73, 
        1, 
        0, 
        74, 
        75, 
        1, 
        76, 
        77, 
        0, 
        1, 
        78, 
        79, 
        0]], 
    "dtype": ["list_int", [
        0, 
        0, 
        0, 
        0, 
        0, 
        0, 
        0, 
        0, 
        0, 
        0, 
        0, 
        0, 
        0, 
        0, 
        0, 
        0, 
        0, 
        0, 
        0, 
        0, 
        0, 
        0, 
        0, 
        0, 
        0, 
        0, 
        0, 
        0, 
        0, 
        0, 
        0, 
        0, 
        0, 
        0, 
        0, 
        0, 
        0, 
        0, 
        0, 
        0, 
        0, 
        0, 
        0, 
        0, 
        0, 
        0, 
        0, 
        0, 
        0, 
        0, 
        0, 
        0, 
        0, 
        0, 
        0, 
        0, 
        0, 
        0, 
        0, 
        0, 
        0, 
        0, 
        0, 
        0, 
        0, 
        0, 
        0, 
        0, 
        0, 
        0, 
        0, 
        0, 
        0, 
        0, 
        0, 
        0, 
        0, 
        0, 
        0, 
        0, 
        0, 
        0, 
        0, 
        0, 
        0, 
        0, 
        0, 
        0, 
        0, 
        0, 
        0, 
        0, 
        0, 
        0, 
        0, 
        0, 
        0, 
        0, 
        0, 
        0, 
        0, 
        0, 
        0, 
        0, 
        0, 
        0, 
        0, 
        0, 
        0, 
        0, 
        0, 
        0, 
        0, 
        0, 
        0, 
        0, 
        0, 
        0, 
        0, 
        0]], 
    "dltype": ["list_str", [
        "float32", 
        "float32", 
        "float32", 
        "float32", 
        "float32", 
        "float32", 
        "float32", 
        "float32", 
        "float32", 
        "float32", 
        "float32", 
        "float32", 
        "float32", 
        "float32", 
        "float32", 
        "float32", 
        "float32", 
        "float32", 
        "float32", 
        "float32", 
        "float32", 
        "float32", 
        "float32", 
        "float32", 
        "float32", 
        "float32", 
        "float32", 
        "float32", 
        "float32", 
        "float32", 
        "float32", 
        "float32", 
        "float32", 
        "float32", 
        "float32", 
        "float32", 
        "float32", 
        "float32", 
        "float32", 
        "float32", 
        "float32", 
        "float32", 
        "float32", 
        "float32", 
        "float32", 
        "float32", 
        "float32", 
        "float32", 
        "float32", 
        "float32", 
        "float32", 
        "float32", 
        "float32", 
        "float32", 
        "float32", 
        "float32", 
        "float32", 
        "float32", 
        "float32", 
        "float32", 
        "float32", 
        "float32", 
        "float32", 
        "float32", 
        "float32", 
        "float32", 
        "float32", 
        "float32", 
        "float32", 
        "float32", 
        "float32", 
        "float32", 
        "float32", 
        "float32", 
        "float32", 
        "float32", 
        "float32", 
        "float32", 
        "float32", 
        "float32", 
        "float32", 
        "float32", 
        "float32", 
        "float32", 
        "float32", 
        "float32", 
        "float32", 
        "float32", 
        "float32", 
        "float32", 
        "float32", 
        "float32", 
        "float32", 
        "float32", 
        "float32", 
        "float32", 
        "float32", 
        "float32", 
        "float32", 
        "float32", 
        "float32", 
        "float32", 
        "float32", 
        "float32", 
        "float32", 
        "float32", 
        "float32", 
        "float32", 
        "float32", 
        "float32", 
        "float32", 
        "float32", 
        "float32", 
        "float32", 
        "float32", 
        "float32", 
        "float32", 
        "float32", 
        "float32", 
        "float32"]], 
    "shape": ["list_shape", [
        [1, 3, 224, 224], 
        [32, 3, 3, 3], 
        [32, 1, 1], 
        [1, 32, 112, 112], 
        [32, 1, 3, 3], 
        [32, 1, 1], 
        [1, 32, 112, 112], 
        [64, 32, 1, 1], 
        [64, 1, 1], 
        [1, 64, 112, 112], 
        [64, 1, 3, 3], 
        [64, 1, 1], 
        [1, 64, 56, 56], 
        [128, 64, 1, 1], 
        [128, 1, 1], 
        [1, 128, 56, 56], 
        [128, 1, 3, 3], 
        [128, 1, 1], 
        [1, 128, 56, 56], 
        [128, 128, 1, 1], 
        [128, 1, 1], 
        [1, 128, 56, 56], 
        [128, 1, 3, 3], 
        [128, 1, 1], 
        [1, 128, 28, 28], 
        [256, 128, 1, 1], 
        [256, 1, 1], 
        [1, 256, 28, 28], 
        [256, 1, 3, 3], 
        [256, 1, 1], 
        [1, 256, 28, 28], 
        [256, 256, 1, 1], 
        [256, 1, 1], 
        [1, 256, 28, 28], 
        [256, 1, 3, 3], 
        [256, 1, 1], 
        [1, 256, 14, 14], 
        [512, 256, 1, 1], 
        [512, 1, 1], 
        [1, 512, 14, 14], 
        [512, 1, 3, 3], 
        [512, 1, 1], 
        [1, 512, 14, 14], 
        [512, 512, 1, 1], 
        [512, 1, 1], 
        [1, 512, 14, 14], 
        [512, 1, 3, 3], 
        [512, 1, 1], 
        [1, 512, 14, 14], 
        [512, 512, 1, 1], 
        [512, 1, 1], 
        [1, 512, 14, 14], 
        [512, 1, 3, 3], 
        [512, 1, 1], 
        [1, 512, 14, 14], 
        [512, 512, 1, 1], 
        [512, 1, 1], 
        [1, 512, 14, 14], 
        [512, 1, 3, 3], 
        [512, 1, 1], 
        [1, 512, 14, 14], 
        [512, 512, 1, 1], 
        [512, 1, 1], 
        [1, 512, 14, 14], 
        [512, 1, 3, 3], 
        [512, 1, 1], 
        [1, 512, 14, 14], 
        [512, 512, 1, 1], 
        [512, 1, 1], 
        [1, 512, 14, 14], 
        [512, 1, 3, 3], 
        [512, 1, 1], 
        [1, 512, 7, 7], 
        [1024, 512, 1, 1], 
        [1024, 1, 1], 
        [1, 1024, 7, 7], 
        [1024, 1, 3, 3], 
        [1024, 1, 1], 
        [1, 1024, 7, 7], 
        [1024, 1024, 1, 1], 
        [1024, 1, 1], 
        [1, 1024, 7, 7], 
        [1024, 1, 5, 5], 
        [1024, 1, 1], 
        [1, 1024, 7, 7], 
        [512, 1024, 1, 1], 
        [512, 1, 1], 
        [1, 512, 7, 7], 
        [1, 512, 14, 14], 
        [512, 1, 5, 5], 
        [512, 1, 1], 
        [1, 512, 14, 14], 
        [256, 512, 1, 1], 
        [256, 1, 1], 
        [1, 256, 14, 14], 
        [1, 256, 28, 28], 
        [256, 1, 5, 5], 
        [256, 1, 1], 
        [1, 256, 28, 28], 
        [128, 256, 1, 1], 
        [128, 1, 1], 
        [1, 128, 28, 28], 
        [1, 128, 56, 56], 
        [128, 1, 5, 5], 
        [128, 1, 1], 
        [1, 128, 56, 56], 
        [64, 128, 1, 1], 
        [64, 1, 1], 
        [1, 64, 56, 56], 
        [1, 64, 112, 112], 
        [64, 1, 5, 5], 
        [64, 1, 1], 
        [1, 64, 112, 112], 
        [32, 64, 1, 1], 
        [32, 1, 1], 
        [1, 32, 112, 112], 
        [1, 32, 224, 224], 
        [1, 32, 1, 1], 
        [1, 1, 1], 
        [1, 1, 224, 224]]]
  }
}